prep/deciderSaves/_best.pth (torch, 1548 bytes, 2 tensors)

weight f4 [3, 9]
0.09210267 -0.12781446 0.15202561 0.31642103 -0.05047343 -0.154495 0.4921426 -0.049924947
-0.014707214 0.050566137 -0.08116589 0.004921894 -0.15273304 0.46110323 -0.06285027 -0.15563054
0.013863524 -0.27959618 0.1452586 -0.11128025 0.29007593 -0.20834954 -0.2580936 0.44457775
-0.22382341 -0.1632071 0.09457847
00000000: 53a0 bc3d cbe1 02be 9aac 1b3e f001 a23e
00000010: 3abd 4ebd f033 1ebe 1dfa fb3e 1a7e 4cbd
00000020: 87f6 70bc 701e 4f3d 4d3a a6bd d747 a13b
00000030: 0d66 1cbe b915 ec3e a4b7 80bd 9d5d 1fbe
00000040: d623 633c 3b27 8fbe acbe 143e e6e6 e3bd
00000050: d584 943e 9559 55be d824 84be b29f e33e
00000060: f731 65be c31f 27be 5bb2 c13d

bias f4 [3]
0.19778977 -0.3190252 0.04339088
00000000: 6789 4a3e 4557 a3be a3ba 313d
