prep/deciderSaves/last.pth (torch, 1542 bytes, 2 tensors)

weight f4 [3, 9]
00000000: 7a56 373e 3bbe 82be 6f64 0a3d c2cb 0f3f
00000010: 0162 cfbe f88b f0be 7200 973e 86ca 3e3e
00000020: a934 4f3e 6f73 713e 09f7 823e 2a34 4b3e
00000030: 4159 f0b7 0336 993e 09c4 123e 3904 62be
00000040: 4408 9f3e f573 9bbe 49c2 6abe a088 bebe
00000050: 5f9e 893e df35 c3bc 4010 83be 232c 813c
00000060: cfbf 76bc a618 563e 820c c1bc
0.17904082 -0.2553576 0.033787187 0.56170285 -0.4050446 -0.46981788 0.29492527 0.18631944
0.20234932 0.2357919 0.25579098 0.19844118 -2.8651792e-05 0.2992402 0.14332594 -0.22071923
0.31060994 -0.30361906 -0.22925676 -0.37213612 0.2687864 -0.023829399 -0.25598335 0.015768116
-0.015060379 0.2090784 -0.023565535

bias f4 [3]
00000000: 279a 823e d645 26bd bc3f 62be
0.25508234 -0.040593944 -0.22094625
